my_neural_network.pth (torch, 585351 bytes, 10 tensors)

model1.0.weight f4 [32, 3, 5, 5]
0	0xbcfbddf5	-0.030745486
1	0x3c08e932	0.008356379
2	0xbda2cf55	-0.07949702
3	0xbe4bbf50	-0.19897199
4	0xbdf64e34	-0.12026635
5	0x3d01edf4	0.03172107
6	0xbcd6db69	-0.02622767
7	0xbd56c1ba	-0.052430846
8	0xbe2b31b8	-0.16718185
9	0xbbff7974	-0.0077964608
10	0xbd7353b0	-0.059405982
11	0x3dcebb03	0.100942634
12	0x3d5f8eb6	0.05457946
13	0xbdf74c83	-0.1207514
14	0xbe045bcf	-0.12925647
15	0x3d1a59aa	0.037683167
16	0x3c8ce84a	0.017200608
17	0x3dd46837	0.1037144
18	0x3d36d56d	0.044637132
19	0xbd997c4a	-0.074944094
20	0x3c002379	0.007820957
21	0x3d737d00	0.05944538
22	0x3d332e23	0.04374517
23	0x3d0f5b1f	0.03499901
24	0xbcaf85d7	-0.021426124
25	0xbc8f7ab2	-0.01751456
26	0x3c8a4ab6	0.016881328
27	0x3cb9f000	0.022697449
28	0xbbed82bc	-0.007248251
29	0x3d59f7ff	0.053215023
30	0x3bfafa10	0.0076592043
31	0x3d272a79	0.04081199
32	0xbd0e22f0	-0.034701288
33	0x3d8d1c38	0.06890148
34	0x3c9521d4	0.018204607
35	0x3e2c4db0	0.1682651
36	0x3dc65453	0.09684052
37	0x3d56d1c3	0.052446138
38	0x3d7b4e11	0.061353747
39	0xbcc9278b	-0.024554988
40	0x3dc986c1	0.098401554
41	0x3c9d8040	0.019226193
42	0xbb13da39	-0.002256049
43	0x3e08a94c	0.13345832
44	0xbbbc00a0	-0.005737379
45	0x3d371f1e	0.04470741
46	0xbd207527	-0.039174225
47	0xbc4ec4d5	-0.012620171
48	0x3d7f095d	0.06226479
49	0x3bf7d1fc	0.007562874
50	0x3da6d089	0.08145244
51	0x3c99ad5e	0.018759426
52	0xbc8f4e7f	-0.017493485
53	0xbe0e1d4c	-0.13878363
54	0xbd870bc8	-0.06594044
55	0x3dff48a4	0.12465027
56	0x3d65b8be	0.056084387
57	0x3c401a39	0.011725002
58	0x3d499996	0.049218737
59	0xbe01727e	-0.12641332
60	0x3e55fd61	0.20897438
61	0x3e6aa0d5	0.22912915
62	0x3e4f9199	0.20270385
63	0x3e0b634d	0.13612099
64	0xbdad2860	-0.084549665
65	0x3d94e830	0.07270849
66	0x3e5f79c0	0.21823788
67	0x3db5692f	0.08857953
68	0x3dd25f47	0.10272079
69	0xbcd8934f	-0.02643743
70	0x3c423237	0.011852792
71	0x3e006cef	0.12541555
72	0x3df4566a	0.11930545
73	0xbc8bec16	-0.017080348
74	0xbd81ee1b	-0.06344243
75	0x3db425e1	0.08796287
76	0xbd4103f6	-0.047122918
77	0x3cbf8251	0.02337757
78	0xb9380f36	-0.00017553274
79	0xbd7f4853	-0.062324833
80	0xbd5594fd	-0.05214404
81	0x3dc9cb15	0.09853188
82	0xbde83e94	-0.11340061
83	0xbdf933c5	-0.121680774
84	0xbdc801f6	-0.09765999
85	0x3e047252	0.12934235
86	0x3dc11647	0.09428077
87	0x3e1413a3	0.14460616
88	0xbb96c5a0	-0.0046011955
89	0x3d02c178	0.031922787
90	0xbcbf448a	-0.023348112
91	0xbc864516	-0.016390365
92	0xbd2f4dd4	-0.042798832
93	0xbd1505a5	-0.036382336
94	0xbd9018d6	-0.07035987
95	0xbbd24c80	-0.006417811
96	0x3d829896	0.0637676
97	0x3d95bd83	0.07311537
98	0xbda7e144	-0.08197263
99	0x3d724643	0.059149038
100	0xbdfff33c	-0.12497565
101	0xbd246c50	-0.040142357
102	0xbe209de1	-0.15685226
103	0xbe652407	-0.22377025
104	0xbd90fc17	-0.07079332
105	0xbc0fcebe	-0.0087773185
106	0xbc8d4b19	-0.017247723
107	0x3d7c44a7	0.06158891
108	0xbe408663	-0.18801264
109	0xbe401e74	-0.18761617
110	0xbd109f85	-0.03530838
111	0xbbdd271e	-0.006749048
112	0xbcb5e252	-0.022202644
113	0x3d3563c2	0.04428459
114	0x3d3855a8	0.045003563
115	0xbe2375e4	-0.1596294
116	0x3d99d7cc	0.07511863
117	0xbae99e54	-0.0017823675
118	0xbcc15a99	-0.02360277
119	0xbde02bba	-0.1094584
120	0xbd3f724c	-0.04673986
121	0xbda45ec5	-0.08025888
122	0x3d779496	0.060444437
123	0xbdb9476f	-0.09046828
124	0xbdead5a6	-0.114665315
125	0xbd303425	-0.04301848
126	0x3ce34508	0.027742878
127	0x3beebf22	0.0072859684
128	0x3c74b6b9	0.014936143
129	0x3ca65156	0.020302456
130	0x3dff55a7	0.12467509
131	0x3de28f9f	0.1106255
132	0x3de277e0	0.110580206
133	0x3dec682d	0.115433075
134	0x3baa0693	0.005188772
135	0x3de0b4c4	0.10971978
136	0x3e052537	0.13002478
137	0x3e9c960a	0.3058322
138	0x3dbb3af0	0.09142101
139	0x3c60573e	0.013692675
140	0x3d85da56	0.06535785
141	0x3e36c4df	0.17848538
142	0x3e0c2808	0.13687146
143	0x3d118a97	0.03553256
144	0x3df81f03	0.1211529
145	0xbcad113a	-0.021126378
146	0x3e21ab4d	0.15788002
147	0x3e3cf306	0.18452081
148	0x3e4f9156	0.20270285
149	0x3d27349d	0.04082166
150	0xbae7ed45	-0.0017694613
151	0xbb73ddde	-0.00372111
152	0xbc6bc673	-0.014390576
153	0x3d26f1ce	0.040757947
154	0xbdc63aac	-0.096791595
155	0xbd80ae3a	-0.06283231
156	0x3dd342da	0.10315485
157	0x3e564de9	0.20928158
158	0x3e1d1e41	0.15343572
159	0x3e0443ea	0.12916532
160	0xbe0b56a4	-0.1360727
161	0xbcea45b1	-0.028597685
162	0x3e5a385f	0.21310566
163	0x3e80ef3b	0.25182518
164	0x3dfb6b93	0.122763775
165	0xbe125dea	-0.14293638
166	0xbe50c20a	-0.2038652
167	0xbc699cba	-0.014258558
168	0x3e355df5	0.17711623
169	0x3e2ce8f5	0.16885741
170	0x3e61578f	0.22006057
171	0x3e0c81d5	0.13721402
172	0x3dd82e98	0.10555762
173	0x3dbdee7e	0.092740044
174	0x3df9e1da	0.12201281
175	0xbe27b097	-0.16375957
176	0xbd7be4ac	-0.061497375
177	0xbe5b4dd9	-0.21416415
178	0xbe0b1b94	-0.13584739
179	0xbda126b7	-0.078687124
180	0xbe5aa74c	-0.21352881
181	0x3b437ef2	0.0029830304
182	0x3d34cc3f	0.044140097
183	0xbdf05a99	-0.1173603
184	0xbdc33c2b	-0.095329605
185	0xbe798996	-0.24368891
186	0xbd939a4d	-0.07207165
187	0xbe62d5c4	-0.22151858
188	0xbc59ca2d	-0.013292831
189	0xbe1db78b	-0.15402047
190	0xbe8729c6	-0.26399058
191	0xbec469a0	-0.38361835
192	0xbecb159c	-0.39664924
193	0xbe924c95	-0.28574052
194	0xbe4010b5	-0.18756373
195	0x3e1bef7a	0.15228072
196	0x3ca9025e	0.020631012
197	0xbdc7d4bd	-0.097573735
198	0xbdca6456	-0.09882419
199	0xbe096e35	-0.13420947
200	0x3e2e2306	0.17005548
201	0x3d47b798	0.048759073
202	0x3dfba17e	0.122866616
203	0xbc89f57b	-0.016840687
204	0xbdf41d93	-0.11919703
205	0x3e17f739	0.14840402
206	0x3e8d5680	0.27605057
207	0x3cc0796d	0.0234954
208	0x3e6bf889	0.23044027
209	0x3d877b4e	0.066153154
210	0x3e1b0981	0.15140344
211	0x3df8215a	0.12115736
212	0x3abdbae0	0.0014475249
213	0x3e64fa19	0.2236103
214	0x3d87d112	0.06631674
215	0x3c5ab92c	0.0133498125
216	0xbe148627	-0.145043
217	0xbe36b54c	-0.17842597
218	0xbdaaf5ce	-0.08347665
219	0x3d696895	0.056984503
220	0x3e3346a3	0.17507415
221	0x3e58c6d5	0.21169598
222	0xbc59e806	-0.013299948
223	0x3d25b410	0.040454924
224	0xbc718970	-0.01474224
225	0xbd26dfa8	-0.04074064
226	0x3d413eda	0.04717908
227	0x3d3981a2	0.045289643
228	0xbe22020f	-0.15821098
229	0xbc9249f0	-0.017857522
230	0xbe8c24e0	-0.27371883
231	0xbe8f6154	-0.28003943
232	0xbe2cabe5	-0.16862448
233	0xbe552be2	-0.20817521
234	0xbdc0fba4	-0.09422997
235	0xbdb06b73	-0.08614244
236	0xbe80cf86	-0.25158328
237	0x3df25092	0.11831774
238	0xbe198936	-0.14993748
239	0x3e12d625	0.14339502
240	0xbb38c82c	-0.0028195484
241	0x3e30c681	0.17263223
242	0x3e90d902	0.28290564
243	0x3e80c506	0.25150317
244	0x3ea09950	0.31366968
245	0xbd59fac9	-0.053217683
246	0x3da33cef	0.079706065
247	0x3d0caef1	0.034346525
248	0x3e1af5f0	0.1513288
249	0x3e4bcb12	0.19901684
250	0x3e32c8ea	0.17459455
251	0xbcbd0b9e	-0.023076829
252	0x3e04d710	0.12972665
253	0xbd08a279	-0.03335807
254	0x3db07e76	0.086178705
255	0xbdaf2fa3	-0.08554008

model1.0.bias f4 [32]
0	0xbccc83f3	-0.024965262
1	0xbd9875d5	-0.0744435
2	0x3e391bfe	0.18077084
3	0xbcd67bcc	-0.026182078
4	0x3dc03d61	0.09386707
5	0x3d5bd454	0.05366929
6	0xbe654e19	-0.22393073
7	0xbdd4c6ec	-0.10389504
8	0x3e89c9df	0.26911828
9	0x3ee37eca	0.4443267
10	0xbc30f004	-0.010799412
11	0xbd6d9440	-0.05800271
12	0xbf23fd5c	-0.6405847
13	0x3d1c2df4	0.03812976
14	0xbd578589	-0.052617583
15	0x3ddc9b00	0.107717514
16	0x3e916a95	0.28401628
17	0x3e28b057	0.16473518
18	0xbcc7037f	-0.02429366
19	0xbd789d44	-0.060696855
20	0x3dc1b5fd	0.0945854
21	0x3e154c1d	0.14579816
22	0xbe80dd18	-0.2516868
23	0xbb9958d9	-0.004679781
24	0x3d91e9db	0.071246825
25	0x3dce007b	0.100586854
26	0xbeb6b93b	-0.35688195
27	0x3ea2890f	0.31745192
28	0xbd3e0a5d	-0.046396602
29	0xbe01b4a2	-0.12666562
30	0x3c60ce0b	0.0137209995
31	0xbc51daac	-0.012808483

model1.3.weight f4 [32, 32, 5, 5]
0	0x3c90b306	0.01766349
1	0x3d389f44	0.045073763
2	0x3dbeadad	0.0931047
3	0x3d6b67e2	0.057472117
4	0xbd814424	-0.06311825
5	0xbd02b923	-0.03191484
6	0x3cd5fc8e	0.026121404
7	0x3dd66632	0.10468711
8	0x3e01ba53	0.12668733
9	0x3d331fe8	0.0437316
10	0xbc5d66d4	-0.013513286
11	0xbcd9d78f	-0.026592044
12	0x3c820383	0.015870815
13	0x3c1b6be2	0.0094861705
14	0xbc3c8f10	-0.011508718
15	0xbd9fc550	-0.07801306
16	0xbd73ee7c	-0.05955361
17	0xb9c9d6e5	-0.00038497816
18	0xbcbdecde	-0.023184236
19	0x3a2e89d8	0.00066581136
20	0xbd0569c8	-0.032571584
21	0xbd3fe123	-0.046845566
22	0xbc2ffcb8	-0.010741405
23	0xbd373697	-0.044729795
24	0x3c7060cd	0.014671517
25	0x3b95952c	0.004564902
26	0x3d3210da	0.043473102
27	0x3d9d714c	0.07687625
28	0x3c0ffd05	0.008788352
29	0xbd073723	-0.033011567
30	0x3cbdca7c	0.023167841
31	0x3d6dd138	0.058060855
32	0x3d9fe819	0.07807941
33	0x3d9b58af	0.075852744
34	0x3c5b773f	0.01339513
35	0xbbc200a3	-0.005920486
36	0xbcaa8a8d	-0.02081802
37	0xbbc79eab	-0.0060919127
38	0xbc9c79c1	-0.019101026
39	0x3c2d1d01	0.010565997
40	0xbc251de1	-0.0100779245
41	0xbcae5762	-0.021281902
42	0xbbe5e68b	-0.0070160083
43	0xbadaf518	-0.0016705124
44	0x3c997834	0.018734075
45	0x3c2d6bea	0.010584811
46	0x3c54a96d	0.012979847
47	0x3c73604b	0.014854501
48	0xbca7cb2d	-0.020482624
49	0x3b6d9d33	0.0036257028
50	0xbca5250d	-0.020159269
51	0xbc0977f8	-0.008390419
52	0xbd4757ab	-0.04866759
53	0xbc80a745	-0.01570476
54	0x3c2f4db3	0.010699677
55	0x3b7c94e8	0.0038540903
56	0xbd077cfe	-0.033078186
57	0xbcb6ffe6	-0.022338819
58	0xba6e238f	-0.0009084278
59	0xbd28473a	-0.041083552
60	0xbd1a1392	-0.03761632
61	0xbd517785	-0.051139373
62	0xbd1afd2c	-0.0378391
63	0xbc4b7fe6	-0.01242063
64	0xbd2c08e7	-0.042000677
65	0x3d6b1da8	0.05740133
66	0x3d0ff84f	0.035148915
67	0x3ca1b00d	0.019737268
68	0x3d14a7b3	0.036292743
69	0xbbe99167	-0.007127929
70	0x3cb46847	0.02202238
71	0x3d5a6496	0.053318582
72	0xbc73ac37	-0.014872602
73	0x3d6ff0ce	0.05857926
74	0x3c87e7ae	0.016589966
75	0xbd136c5f	-0.035992023
76	0x3cbccdc6	0.02304734
77	0x3d498660	0.049200416
78	0x3cd1e047	0.02561964
79	0x3c0508bc	0.008119758
80	0x3b62be01	0.0034598114
81	0xbc0044dd	-0.007828918
82	0xbcb70218	-0.022339866
83	0xbb8c3e64	-0.0042798985
84	0xbb402cb4	-0.002932352
85	0xbd8ed848	-0.06974846
86	0xbd12217c	-0.035676464
87	0xbce6504c	-0.02811446
88	0x3acf8767	0.00158332
89	0xbcb8664a	-0.022509713
90	0xbcb0c683	-0.021579033
91	0xbd68ab29	-0.056803856
92	0xbd25d271	-0.040483896
93	0xbd465736	-0.048423015
94	0xbd513acc	-0.051081464
95	0x3c4d3b96	0.012526413
96	0x3c714910	0.014726892
97	0xbb05f286	-0.0020438745
98	0xba28056e	-0.00064095005
99	0x3cb716b0	0.022349685
100	0x3cd3a3c0	0.025834918
101	0x3d9ef302	0.07761194
102	0x3dcf79bd	0.101306416
103	0x3c1269a7	0.008936322
104	0xbc89c7d5	-0.01681892
105	0x3d44c7f3	0.04804225
106	0x3c2bd63d	0.01048809
107	0xbce0e215	-0.027451554
108	0x3d30d8dd	0.043175567
109	0x3d71505c	0.058914527
110	0xbdc26796	-0.09492414
111	0xbe08ccfc	-0.13359445
112	0xbe4920d1	-0.19641425
113	0xbe10b8bc	-0.1413297
114	0xbde70fc5	-0.11282305
115	0xbd8471b4	-0.06467
116	0xbdc760b9	-0.09735245
117	0xbe06dabd	-0.1316938
118	0xbdc1e440	-0.09467363
119	0xbd962948	-0.073320925
120	0x3c7b6426	0.0153437015
121	0xbd6d3325	-0.057910103
122	0xbd99a5f9	-0.0750236
123	0xbcca25f1	-0.024676295
124	0x3c6c946e	0.014439685
125	0xbd824a87	-0.06361871
126	0xbcd5dcb4	-0.026106216
127	0xbc752406	-0.014962202
128	0x3d733a4f	0.05938178
129	0x3b47823d	0.0030442618
130	0xbd88aef5	-0.066739954
131	0xbc814d4e	-0.015783932
132	0x3d489920	0.048974156
133	0x3de596dc	0.11210415
134	0x3d3c1e69	0.04592744
135	0xbd976414	-0.07392135
136	0xbd7ebd0a	-0.062192
137	0xbcb23225	-0.021752426
138	0x3d41af24	0.047286168
139	0x3b39072d	0.0028233037
140	0xbd99d00f	-0.07510387
141	0xbccb8daf	-0.024847833
142	0xbbc05520	-0.0058695227
143	0xbcb287af	-0.021793215
144	0xbb80cec7	-0.0039309
145	0xbd5e77f9	-0.054313634
146	0x3c24befa	0.010055298
147	0xbd0aee80	-0.033918858
148	0xbd75c284	-0.059999958
149	0xbc8ee6d5	-0.017444054
150	0x3d1a6226	0.037691258
151	0xbc8ac5a1	-0.01693994
152	0xbce40aec	-0.02783724
153	0xbd3e3889	-0.046440635
154	0xbcd4d8dc	-0.025982313
155	0x3b698935	0.003563476
156	0x3d38fa36	0.045160495
157	0xbd1b04cc	-0.03784637
158	0xbc24f5ca	-0.010068366
159	0xbd153b51	-0.03643352
160	0x3b1c2e17	0.0023831183
161	0xbc0be702	-0.008538963
162	0x3d2da473	0.04239316
163	0x3c731b25	0.014838015
164	0xbcd076dd	-0.025447303
165	0x3bfa0b0e	0.0076307124
166	0x3aa566ef	0.0012619178
167	0xbbde76a9	-0.0067890477
168	0xbc4a0bee	-0.012331946
169	0xbc4213bc	-0.011845525
170	0x3cea94fe	0.028635498
171	0x389185de	6.9390735e-05
172	0xb9630566	-0.00021650418
173	0xbceae5d1	-0.028674038
174	0xbc4bef60	-0.012447208
175	0x3c9e7735	0.019343952
176	0x3c2ef71b	0.010679032
177	0x3cdb8832	0.026798341
178	0x3cb66215	0.022263566
179	0x3cc3a80b	0.02388384
180	0xbb39fd27	-0.002837965
181	0x3be853a9	0.007090051
182	0x3c423aee	0.01185487
183	0x3c130484	0.008973245
184	0xbca94fe6	-0.020667981
185	0x3d04212a	0.03225819
186	0xbbeb3f6e	-0.0071791923
187	0x3d07db30	0.033168018
188	0xbcb7c6e2	-0.022433702
189	0x3c815cc1	0.015791299
190	0x3adfdcaf	0.0017079319
191	0xbc26f261	-0.010189624
192	0x3d061ecd	0.032744218
193	0x3bed182f	0.007235549
194	0x3bf546da	0.007485253
195	0xbd0e6cb4	-0.034771636
196	0xbcf1347c	-0.029443972
197	0xbc93096d	-0.01794883
198	0xbaaae3b5	-0.0013037833
199	0xbcc8f3fc	-0.024530403
200	0xbd549bde	-0.05190646
201	0xbdbee30e	-0.09320651
202	0xbcda25a8	-0.026629284
203	0xbc7e41c4	-0.015518609
204	0xbd32b326	-0.04362788
205	0xbcaee09b	-0.021347335
206	0xbd02057c	-0.03174351
207	0xbcd15e96	-0.025557797
208	0x3c198563	0.009370181
209	0xbc946e8b	-0.018119117
210	0xbbb65343	-0.005564125
211	0xbcfd3ac9	-0.03091182
212	0xbd77b813	-0.06047828
213	0xbb83feb9	-0.004028168
214	0x3ceac067	0.028656198
215	0x3a5f3df2	0.00085160055
216	0xbc6f47b1	-0.014604495
217	0xbcc2968e	-0.02375343
218	0xbd01d562	-0.03169764
219	0x3ce12c1a	0.02748685
220	0xbd1c1ba0	-0.038112283
221	0xbb19bd47	-0.0023458765
222	0xbcd76362	-0.026292507
223	0xbbc2d7e2	-0.0059461454
224	0x3d2d41aa	0.04229895
225	0xbd1f64e6	-0.038914584
226	0xbdc2bf20	-0.095091105
227	0xbd952aff	-0.072835915
228	0xbd961076	-0.073273584
229	0xbc8f4c0b	-0.017492315
230	0x3cbcb7df	0.023036895
231	0xbbabe05f	-0.005245253
232	0xbd3c2832	-0.04593677
233	0xbc9cc8e1	-0.019138755
234	0xbc659fc5	-0.014015143
235	0x3c8ac75d	0.016940767
236	0x3cfcdc9d	0.030866915
237	0x3d4743b5	0.048648555
238	0x3d2551b6	0.04036113
239	0x3d325303	0.043536197
240	0x3d8f3882	0.069932
241	0x3d4f5194	0.05061491
242	0x3d061b44	0.032740846
243	0x3d8f1009	0.0698548
244	0x3da58f18	0.080839336
245	0xbacaedb6	-0.001548222
246	0x3d24b3d7	0.04021057
247	0x3d8cd8b4	0.0687727
248	0x3d9c25b4	0.07624379
249	0x3dc9c1e2	0.09851433
250	0x3c75666e	0.014978034
251	0xbb518842	-0.0031972085
252	0x3ce0b3eb	0.027429542
253	0xbcaeb32d	-0.021325672
254	0x3cfd0408	0.030885711
255	0xbd0b98a0	-0.0340811

model1.3.bias f4 [32]
0	0xbc284859	-0.010271155
1	0xbdbfcfc1	-0.09365798
2	0x3e02b908	0.12765896
3	0x3eb03b89	0.34420422
4	0x3ce22ffb	0.02761077
5	0xbe8ef4b9	-0.27921084
6	0xbdc277b7	-0.0949549
7	0xbd77290c	-0.06034188
8	0x3d4ae318	0.04953298
9	0xbdbc0dff	-0.09182357
10	0xbd887b15	-0.06664101
11	0xbd190a86	-0.03736355
12	0x3e5a88dc	0.2134127
13	0xbd8fdf62	-0.07025029
14	0x3e0b5c11	0.1360934
15	0x3e1f22dd	0.15540643
16	0xbdbf35b1	-0.09336413
17	0xbe2bc6fe	-0.16775128
18	0x3e2348d9	0.15945758
19	0xbd3cfa96	-0.046137415
20	0xbcbd54d9	-0.023111748
21	0xbcad13a1	-0.021127524
22	0x3e58eb4e	0.21183512
23	0xbd52dac8	-0.051478177
24	0xbe40552d	-0.18782492
25	0x3dc767b4	0.09736577
26	0x3d7581e3	0.059938323
27	0xbe495f8b	-0.19665353
28	0xbe561c9a	-0.20909348
29	0xbdede189	-0.11615283
30	0xbe82e2ec	-0.25563753
31	0xbdfdda67	-0.123951726

model1.6.weight f4 [64, 32, 5, 5]
0	0x3a146712	0.00056611106
1	0xbd41e3d4	-0.047336414
2	0x3c743bed	0.014906866
3	0x3d30d5c2	0.043172605
4	0xbbb9fc4c	-0.005675828
5	0x3d1c9e67	0.038237
6	0xbd2cf1be	-0.04222273
7	0x3d51e4e5	0.05124368
8	0x3d87edd1	0.06637157
9	0xbc205527	-0.009785927
10	0x3d592636	0.053014956
11	0x3db164b9	0.086617894
12	0x3d9a7769	0.07542307
13	0xbcc6da7b	-0.024274101
14	0xbd3fe4db	-0.046849113
15	0x3dd2ff5d	0.10302613
16	0x3c38ba4a	0.0112748835
17	0xbcfbcae9	-0.030736404
18	0xbde02a54	-0.109455734
19	0xbb13bc3b	-0.0022542614
20	0x3d3fe42e	0.04684847
21	0xbd74fb23	-0.059809815
22	0x3b1773bc	0.0023109755
23	0xbcccc5c6	-0.02499665
24	0xbd51378e	-0.05107837
25	0xbd1bdd21	-0.03805268
26	0xbc87fa85	-0.01659895
27	0xbd803ebe	-0.06261967
28	0xbbf201a6	-0.0073854504
29	0x3c1cbd21	0.009566576
30	0xbc9ac083	-0.018890625
31	0x3d349519	0.044087503
32	0x3bd9dc6d	0.0066485913
33	0xbc8c796a	-0.017147738
34	0xbd0de97a	-0.03464649
35	0xba7e1fd6	-0.0009694075
36	0x3d182a0d	0.037149478
37	0xbcaa884b	-0.020816943
38	0xbcf63773	-0.030055737
39	0x3c8ef41d	0.017450387
40	0x3bd97801	0.00663662
41	0x3d1d3ac1	0.03838611
42	0xbbe1840c	-0.0068821963
43	0x3c692999	0.014231109
44	0xbd04a05a	-0.032379486
45	0x3b6330c4	0.0034666518
46	0x3cbcf2b0	0.023064941
47	0x3b87a4f3	0.0041395365
48	0x3c83a1f0	0.016068429
49	0xbb4d6162	-0.0031338562
50	0xbd243318	-0.04008779
51	0xbb1971da	-0.0023413808
52	0xbd0a6f29	-0.033797417
53	0xbbaca901	-0.0052691703
54	0xbd2ae6ac	-0.041723892
55	0x3c5cae76	0.013469329
56	0xbd0dcc4e	-0.03461867
57	0x3c8ba9c4	0.017048724
58	0x3cbbfb00	0.022946835
59	0xbca2a2b8	-0.019852981
60	0x3cccd8ad	0.025005663
61	0x3c25f414	0.010128994
62	0x3d4fdeef	0.050749715
63	0xbc0f0f19	-0.008731627
64	0x3b5ddd19	0.0033853708
65	0x3cc610ea	0.024177987
66	0x3d12e66b	0.035864275
67	0xbaf4f3a7	-0.0018688337
68	0xbd45c786	-0.048285984
69	0xbb5f6eef	-0.0034093221
70	0xbb940d03	-0.0045181527
71	0x3ce86ff6	0.0283737
72	0xbcedb272	-0.029015753
73	0xbc8985a3	-0.016787356
74	0xbb899057	-0.004198115
75	0xbd660fe8	-0.056167513
76	0xbcd26bd6	-0.025686186
77	0x3cbba792	0.022907052
78	0x3d3dacef	0.0463075
79	0x3d589ae7	0.0528821
80	0x3a51ddcb	0.0008005767
81	0xbd2dfe64	-0.042478934
82	0x3dae06ac	0.08497366
83	0x3c8dca5b	0.017308405
84	0xbc0e1873	-0.008672821
85	0xbb62a3f5	-0.003458259
86	0xbd0ab9be	-0.033868544
87	0xbd7daed4	-0.061934307
88	0xbc02231b	-0.00794294
89	0xbcabab79	-0.020955788
90	0x3d62d8f9	0.055382702
91	0xbdbd490c	-0.09242448
92	0xbced2c69	-0.02895184
93	0x3c88d4ba	0.016702998
94	0xbbb3acc8	-0.0054832436
95	0x3d97e036	0.07415812
96	0x3b498e1d	0.0030754872
97	0x3d9700cc	0.07373199
98	0xbc5c2319	-0.013436102
99	0xbd620808	-0.05518344
100	0x3cf515c9	0.029917615
101	0x3cc10890	0.023563653
102	0x3cbcb0d0	0.02303353
103	0x3cb748c9	0.022373574
104	0xbc8d6b0a	-0.017262954
105	0xbcd56cfb	-0.026052942
106	0xbce75aae	-0.028241482
107	0x3b3addbf	0.0028513519
108	0xbccb40bb	-0.02481114
109	0x3ae918fa	0.0017783933
110	0xbc7ee250	-0.015556887
111	0xbd09dbbc	-0.03365682
112	0xbd19d017	-0.037551966
113	0xbcec7550	-0.028864533
114	0x3cafbd01	0.021452429
115	0x3cd36ade	0.025807794
116	0xbccdb624	-0.025111265
117	0xbcac495f	-0.02103108
118	0x3cb37771	0.02190754
119	0x3c252b13	0.0100810705
120	0x3ce71a84	0.028210886
121	0x3d03afb9	0.032150004
122	0xbd0b8de5	-0.034070868
123	0xbc7cfd83	-0.015441301
124	0xbbb78880	-0.005600989
125	0x3d2ee67a	0.04270027
126	0x3dc72ac4	0.09724954
127	0x3d110b71	0.035411302
128	0xbc9c3513	-0.019068277
129	0xbd11ae9e	-0.03556692
130	0x3d6347fd	0.055488575
131	0x3de1c8e6	0.110246465
132	0x3d47a97a	0.04874561
133	0xbd8d58ce	-0.06901704
134	0xbc6e7bcb	-0.014555882
135	0xbdde4107	-0.10852247
136	0xbd35b015	-0.044357378
137	0xbb9827d1	-0.0046434184
138	0x3c4bea17	0.012445948
139	0x3d8f3992	0.069934025
140	0x3d57c6e2	0.052679904
141	0x3dc8266c	0.097729534
142	0x3ce2a63f	0.027667163
143	0x3d8c1ed8	0.068418205
144	0x3d557339	0.052111838
145	0xbc401f55	-0.01172622
146	0x3c3cd1d4	0.011524636
147	0xbb807b3e	-0.0039209416
148	0x3c0706f2	0.008241402
149	0x3bf13db1	0.0073620905
150	0xbbf44323	-0.0074542924
151	0x3d83a518	0.064279735
152	0x3cdd63fa	0.027025212
153	0xbd21029f	-0.03930914
154	0x3c8b6b8f	0.017019061
155	0xbc56bc02	-0.013106348
156	0xbc2d0b56	-0.010561785
157	0xbc20e5af	-0.009820386
158	0xbd8d7b80	-0.069083214
159	0xbc7022a9	-0.014656701
160	0xbd33bdea	-0.043882288
161	0xbdb33958	-0.08751172
162	0xbd7a3148	-0.061082155
163	0x3ce377d9	0.027767109
164	0x3b5a1c03	0.0033280856
165	0xbd60219a	-0.054719545
166	0xbd236412	-0.039890356
167	0xbb6f3910	-0.0036502518
168	0x3d7d5817	0.061851587
169	0x3d2b4b6f	0.041819986
170	0x3c081108	0.008304842
171	0xbd140b34	-0.036143497
172	0x3d5368b6	0.051613532
173	0x3d27b9bf	0.040948626
174	0xbc652ec3	-0.0139882
175	0xbd088e70	-0.033338964
176	0x3d173ed7	0.036925163
177	0x3a6d716e	0.0009057735
178	0x3c09b5a0	0.008405119
179	0xbb6d32db	-0.0036193642
180	0xbc914179	-0.017731415
181	0xbc452372	-0.012032377
182	0x3c0f9a5e	0.008764831
183	0xbc47325a	-0.012158001
184	0xbb80bda7	-0.0039288583
185	0xbc94d77b	-0.018169155
186	0xbca828f0	-0.020527333
187	0xbcf3eb00	-0.029775143
188	0xbb5dd262	-0.0033847322
189	0xbb8fcaef	-0.0043882052
190	0xbd04a3f1	-0.03238291
191	0xbd08e58d	-0.03342204
192	0xbbad293f	-0.005284458
193	0x3c0f019b	0.00872841
194	0xbce8f47d	-0.028436894
195	0x3c0618d8	0.008184634
196	0x3ca91d76	0.02064393
197	0xbc24fd51	-0.010070161
198	0x3cdb448d	0.026766086
199	0xbc4e88be	-0.012605844
200	0xbc66f01e	-0.014095334
201	0x3cb086cc	0.021548651
202	0x3db4d4fe	0.088296875
203	0x3d980803	0.07423403
204	0x3dbb3b23	0.09142139
205	0x3d2757e1	0.040855292
206	0xbd300664	-0.042974845
207	0xbcc71d49	-0.024305956
208	0x3d26168e	0.040548854
209	0xb8916d1a	-6.9344605e-05
210	0x3d4af95e	0.04955422
211	0xbc9bcceb	-0.019018611
212	0x3c17d7ac	0.009267729
213	0xbb9856a2	-0.0046489993
214	0xbc7bffc1	-0.015380801
215	0x3d458a3f	0.048227545
216	0xbd1f8c29	-0.038952027
217	0x3d6490ea	0.055802263
218	0xbd25b33d	-0.040454138
219	0xbd97887a	-0.07399078
220	0xbc69736f	-0.014248713
221	0xbd9cad09	-0.07650191
222	0x3cf624fe	0.030046936
223	0xbda01c28	-0.078178704
224	0xbdbdbf0d	-0.09264956
225	0x3c0c54c1	0.008565129
226	0xbc00d237	-0.007862619
227	0xbcc37806	-0.023860943
228	0xbd0a395c	-0.03374611
229	0xbd190c5a	-0.037365295
230	0x3d59494c	0.053048417
231	0xbd054a52	-0.03254158
232	0x3bf50e66	0.007478523
233	0x3ae70ba2	0.0017627368
234	0x3d290192	0.041261263
235	0xbd67b66c	-0.056570455
236	0xbd46ec0e	-0.048564963
237	0xbcb59e5f	-0.022170244
238	0x3c998d71	0.018744202
239	0xbd083372	-0.033252187
240	0x3cb3cd1d	0.021948392
241	0xbc07ef31	-0.008296774
242	0xbd5526da	-0.052039005
243	0xbd003af2	-0.031306215
244	0x3cbfbd98	0.023405835
245	0xbcaeeced	-0.02135321
246	0x3b826788	0.003979627
247	0xbbcd4855	-0.006264726
248	0x3c257de0	0.010100812
249	0x3c7b41c0	0.0153355
250	0x3cf67f97	0.030090136
251	0x3dbc9c41	0.092094906
252	0x3beb4237	0.0071795243
253	0x3c0dc541	0.008652986
254	0xbc1a1d90	-0.009406462
255	0xbcfc6f90	-0.030814916

model1.6.bias f4 [64]
0	0xbdc66d7e	-0.09688853
1	0xbd7162a3	-0.058931958
2	0x3b5ae0b6	0.0033398098
3	0xbe210568	-0.15724719
4	0x3d571822	0.05251325
5	0x3c2dfb00	0.010618925
6	0x3da2d2b5	0.079503454
7	0xbda1ed2c	-0.07906565
8	0xbddff7ee	-0.10935961
9	0x3d8dc322	0.06921984
10	0x3d78bb46	0.060725473
11	0xbd406a29	-0.046976242
12	0xbd9a27c7	-0.07527118
13	0x3dc7bca2	0.09752776
14	0xbd992639	-0.074779935
15	0xbddffd66	-0.10937004
16	0xbba2af68	-0.0049647577
17	0xbd2c6056	-0.04208406
18	0x3dd7e865	0.105423726
19	0xbbeea356	-0.0072826548
20	0x3c1d9ce1	0.009619922
21	0x3df60f2a	0.12014611
22	0x3de6a37a	0.112616494
23	0xbd95d480	-0.07315922
24	0xbcaa887a	-0.02081703
25	0xbd9b7bcb	-0.07591971
26	0xbdef60d5	-0.11688391
27	0x3cf1d168	0.029518798
28	0xbcf54cde	-0.02994388
29	0x3d437f01	0.047728542
30	0x3ced9469	0.029001432
31	0x3d3c4a94	0.04596956
32	0x3ba53b71	0.0050424864
33	0xb821ee42	-3.8607286e-05
34	0x3cbfa5ba	0.023394454
35	0xbca3646e	-0.01994535
36	0xbdc4873d	-0.09596107
37	0x3dde7660	0.10862422
38	0xbda09d61	-0.07842518
39	0xbd81f9ff	-0.06346511
40	0xbcc9f3f1	-0.024652453
41	0xbdc3b98b	-0.09556874
42	0x3e0676c3	0.13131242
43	0xbbcc2ae8	-0.0062307008
44	0x3c78ac7b	0.015177841
45	0x3e0e3b98	0.1388992
46	0xbc83c78f	-0.016086368
47	0x3daf60de	0.08563398
48	0xbcefc974	-0.029270865
49	0x3dfcee79	0.123501725
50	0x3d3a741c	0.045520887
51	0x3cf65b11	0.03007272
52	0xbc073f6a	-0.008254865
53	0xbbd8918b	-0.006609147
54	0x3e244b12	0.16044262
55	0x3d84cda9	0.06484539
56	0xbd5122c7	-0.051058557
57	0xb8f975a9	-0.00011895161
58	0x3bd7a292	0.006580659
59	0xbcf1aa16	-0.029500049
60	0x3cfc233e	0.030778524
61	0xbdcd4f6d	-0.10024915
62	0x3e2db20d	0.16962452
63	0xbc91cf75	-0.017799119

model1.10.weight f4 [64, 1024]
0	0x3baa65af	0.00520011
1	0x39ccd1ad	0.00039066133
2	0xbd455aa7	-0.048182156
3	0x3ce9b1c1	0.028527142
4	0x3c9832a5	0.018578837
5	0xbb4cdc30	-0.0031259172
6	0xbd16396f	-0.036675867
7	0xbd02eee0	-0.03196609
8	0xbc3f812c	-0.011688512
9	0x3d4812ec	0.04884617
10	0xbb9f01a4	-0.0048524905
11	0xbcba7d26	-0.022764754
12	0x3d8a44f2	0.067514315
13	0xbcc13723	-0.023585862
14	0x375fd55a	1.3341511e-05
15	0xbba9b706	-0.005179289
16	0x3d269eb2	0.040678687
17	0xbb4ec89a	-0.0031552673
18	0xbc9d5c81	-0.019209148
19	0xbdb3dccd	-0.08782349
20	0x3b588d52	0.0033043218
21	0x3b8d6f2c	0.0043162312
22	0xbc909ade	-0.017651971
23	0x3b9b4f90	0.004739709
24	0xba9bb7a8	-0.0011880295
25	0x3c8db5eb	0.01729866
26	0xbdcf81ac	-0.10132155
27	0x3d1cb484	0.03825809
28	0x3d01f88c	0.031731173
29	0xbd2d2d11	-0.042279307
30	0xbd90d858	-0.07072514
31	0x3c998355	0.018739382
32	0xbd034f67	-0.032058146
33	0xbd4e7ec9	-0.05041388
34	0xbd31b725	-0.04338755
35	0xbbc63c80	-0.0060496926
36	0xbd1a1591	-0.037618224
37	0xbb5a8003	-0.003334046
38	0xbcb7b322	-0.022424284
39	0xbc21aa40	-0.009867251
40	0xbc4b8f17	-0.012424252
41	0x3cc13682	0.023585562
42	0x3ca2d720	0.01987797
43	0x3baf711e	0.005354061
44	0x3d52fe68	0.051512152
45	0x3d3f209d	0.04666196
46	0x3d37642e	0.044773273
47	0xbc002aa6	-0.007822668
48	0xbd291583	-0.04128028
49	0x3b3868df	0.002813868
50	0xbcaa09d2	-0.020756636
51	0xb92aef5c	-0.00016301632
52	0x3d0ae943	0.033913862
53	0xbcadb803	-0.021205908
54	0xbca13630	-0.019679159
55	0xbd054e3e	-0.03254532
56	0x3cf4dc80	0.029890299
57	0x3cc78758	0.02435653
58	0xbc52594d	-0.012838674
59	0xbd58e07e	-0.052948467
60	0xbc3e9343	-0.01163179
61	0x3d003ee7	0.03130999
62	0xbb84234f	-0.0040325294
63	0xb9b24b65	-0.0003400698
64	0x3d5658be	0.052330725
65	0x3b97cc5c	0.004632516
66	0xbca4843b	-0.020082584
67	0x3b68bb98	0.0035512205
68	0x3da00c97	0.07814901
69	0x3c32ec47	0.010920591
70	0x3c9e3dc8	0.019316569
71	0xbd01bfe1	-0.03167713
72	0x3d0a566a	0.033773817
73	0xbc6b67e2	-0.014368029
74	0xbd12b91a	-0.035821058
75	0xbbedceb8	-0.007257309
76	0x3d53b2cd	0.05168419
77	0x3bd97b78	0.006637033
78	0x3c7ebab7	0.015547446
79	0x3d632a91	0.055460516
80	0x3c90ffd3	0.017700111
81	0x3c3c4f46	0.01149351
82	0x3c016f35	0.007900049
83	0xbd9f0ab9	-0.07765717
84	0xbd444ddb	-0.04792581
85	0xbd480173	-0.048829507
86	0x3cbd062c	0.023074232
87	0xbdc4540a	-0.09586342
88	0xbc28ea40	-0.010309756
89	0x3cd0b648	0.025477543
90	0xbd222374	-0.039584592
91	0x3d44fd7a	0.048093297
92	0x3b90bcd8	0.004417043
93	0x3c82c428	0.015962675
94	0xbd01dc60	-0.031704307
95	0xbc771b92	-0.015082257
96	0x3c295469	0.010335066
97	0x3d3eca71	0.046579782
98	0xbca2c864	-0.019870944
99	0xbca54cca	-0.020178217
100	0x3bb8dc61	0.0056415056
101	0xbd34d9ab	-0.044152897
102	0x3cfc1a8a	0.030774374
103	0xbd1a60f4	-0.037690118
104	0x3d5fd000	0.054641724
105	0x3d12d582	0.03584815
106	0xbcb22222	-0.021744791
107	0xbccbd114	-0.02487997
108	0x3d89b423	0.067238115
109	0x3d00fcc8	0.03149107
110	0xbd33d9c7	-0.04390886
111	0x3b129c7b	0.0022371102
112	0x3c83cf83	0.01609016
113	0xbb29fa25	-0.0025936451
114	0x3d34630a	0.044039764
115	0x3c8e119e	0.017342385
116	0x3bb70e68	0.005586434
117	0xbc86843a	-0.016420472
118	0x3d6375e7	0.055532362
119	0xbc5ce6a6	-0.013482725
120	0xbd6b6fe3	-0.05747975
121	0xbc892df1	-0.01674554
122	0x3d431887	0.047630813
123	0x3c459dd0	0.012061551
124	0x3c300ce6	0.010745263
125	0x3c877564	0.016535468
126	0xbc1dffd1	-0.009643511
127	0x3c815e76	0.015792113
128	0xbbcffc47	-0.0063472125
129	0xbdb037ee	-0.08604418
130	0xbcd1330d	-0.025537038
131	0x3b0e94ed	0.0021756247
132	0x3d1bf08b	0.038071197
133	0xbbd5adb6	-0.006520952
134	0x3d2f0cd5	0.042736847
135	0xbc9ddac4	-0.019269355
136	0xbd236369	-0.039889727
137	0xbca09086	-0.019600164
138	0xbc933b54	-0.017972626
139	0x3cf30f4e	0.029670384
140	0xba1440df	-0.00056554185
141	0xbb6b1d1d	-0.0035875507
142	0xbd921363	-0.07132604
143	0x3d4bc9fe	0.04975318
144	0xbcdb0aa2	-0.026738469
145	0x3c865ad5	0.016400734
146	0x3d12e520	0.035863042
147	0xbcf9fd36	-0.030516248
148	0x3d065841	0.03279901
149	0xbd72979a	-0.05922661
150	0xbda5e490	-0.081002355
151	0xbcf17ffe	-0.029479977
152	0x3d6a7a88	0.05724576
153	0x3ce8022a	0.028321344
154	0x3d934dcb	0.07192572
155	0x3cf6534e	0.03006902
156	0x3d281fc5	0.041045923
157	0x3d3f36b4	0.04668303
158	0x3c3129bf	0.010813176
159	0x3d5eac0b	0.05436329
160	0x3dafb000	0.08578491
161	0x3ce75779	0.028239952
162	0x3d8c8c64	0.06862715
163	0x3d890f3e	0.0669236
164	0x3d950e89	0.07278163
165	0xbd457f02	-0.048216827
166	0xbdf2c885	-0.11854652
167	0x3da5dc36	0.080986425
168	0x3a9f94ac	0.0012175045
169	0xbca19283	-0.019723183
170	0xbcac967d	-0.021067852
171	0x3d4aa043	0.049469244
172	0x3c981a83	0.01856733
173	0x3c8b9da5	0.017042944
174	0x3dcfa696	0.101391956
175	0x3db15466	0.08658676
176	0x3cc4a824	0.024005957
177	0xbd521dac	-0.05129783
178	0xbb3921da	-0.0028248937
179	0x3d181033	0.037124824
180	0xbd28ef0b	-0.041243594
181	0xbc59a13a	-0.013283068
182	0xbd280976	-0.041024648
183	0x3db59c45	0.08867697
184	0xbd52bbf0	-0.051448762
185	0xbcbb57ba	-0.02286898
186	0x3cce9051	0.0252153
187	0x3da167bd	0.07881115
188	0x3d9a25ea	0.07526763
189	0x3d320f26	0.043471478
190	0x3d7ab460	0.061207175
191	0x39dcf73c	0.00042145874
192	0xbaa69ffb	-0.0012712473
193	0x3c8534e9	0.016260581
194	0xbd7d1c74	-0.061794713
195	0xbd5406f8	-0.05176446
196	0x3d54652e	0.051854305
197	0x3c3722a7	0.011177695
198	0x3c35e23f	0.011101305
199	0x3c4ead2f	0.012614532
200	0xbc5a18d7	-0.013311586
201	0x3c931137	0.017952545
202	0xbc529600	-0.012853146
203	0x3c774043	0.015091005
204	0xbd082057	-0.033233967
205	0xbc1d05c7	-0.009583897
206	0x3c4a5ce7	0.012351251
207	0x3cee57a3	0.029094523
208	0xbc748fdb	-0.014926876
209	0xbc082e4b	-0.008311818
210	0xbb891b11	-0.004184135
211	0xbb830e57	-0.003999512
212	0x3bdeb633	0.006796622
213	0x3b1c514b	0.0023852165
214	0xbd05117c	-0.032487378
215	0x3cf61497	0.030039115
216	0x3cf8236f	0.030290334
217	0x3c9b97aa	0.018993217
218	0xbd2c5eb6	-0.04208251
219	0x3c9c0afe	0.01904821
220	0x3cce6b7b	0.025197735
221	0x3d481d64	0.048856154
222	0x3cf8ac32	0.030355547
223	0x3d07ef95	0.033187468
224	0x3d0823fe	0.03323745
225	0x3c93acdf	0.018026767
226	0x3c2ab5ce	0.010419322
227	0x3d2bf904	0.041985527
228	0x3d99c753	0.07508721
229	0x3d69b29f	0.057055112
230	0x3c845229	0.016152458
231	0xbce57e06	-0.028014194
232	0x3d1897db	0.037254196
233	0xbd540b47	-0.051768567
234	0xbc6f0acf	-0.014589979
235	0x3d805735	0.062666334
236	0x3d1dc329	0.038516197
237	0x3d095cab	0.03353564
238	0xbb997ddf	-0.0046841945
239	0xbb48b9ec	-0.0030628396
240	0xbc6eef65	-0.014583443
241	0xbbe18ee9	-0.0068834913
242	0xbc0dc519	-0.008652949
243	0x3c7425c4	0.014901582
244	0xbbee007a	-0.0072632404
245	0x3ca6325f	0.02028769
246	0x3b86c7ea	0.004113187
247	0x3d69a65d	0.057043422
248	0xbd3cd73c	-0.0461037
249	0x3d1930d3	0.037400078
250	0xbc9883c8	-0.018617526
251	0x3da70d2c	0.08156809
252	0xbc92d860	-0.017925441
253	0xbc085d34	-0.008323003
254	0x3c05efdf	0.0081748655
255	0x3cf6750d	0.030085111

model1.10.bias f4 [64]
0	0x3cd1eb32	0.025624845
1	0x3d3c6016	0.045990072
2	0x3e130940	0.14358997
3	0xbd1eb144	-0.038743272
4	0x3c042d93	0.008067506
5	0x3abce862	0.0014412517
6	0x3dd2af86	0.10287385
7	0x3c853421	0.016260209
8	0xbc995d93	-0.018721377
9	0xbd4ab4b1	-0.049488727
10	0x3d59c030	0.0531618
11	0x3c885949	0.016644137
12	0x3cd1d7dd	0.025615627
13	0x3cda4572	0.026644442
14	0x3d767392	0.06016881
15	0x3cb6b7b3	0.022304391
16	0x3d854f98	0.06509322
17	0xbd651b27	-0.055934098
18	0x3d34e636	0.04416486
19	0xbd576b79	-0.05259273
20	0x3cccff68	0.025024131
21	0xbc9487f6	-0.018131237
22	0xbd832164	-0.06402853
23	0xbd1ae0f4	-0.03781219
24	0xbdd419c6	-0.103564784
25	0x3d64c4a8	0.05585161
26	0xbd671b80	-0.05642271
27	0x3d149894	0.036278322
28	0x3e6ed8de	0.23324916
29	0x3da51b45	0.08061842
30	0x3cac6b97	0.021047397
31	0x3d737ea6	0.059446953
32	0xbd4adaf2	-0.04952521
33	0xbda831d7	-0.08212631
34	0xbc88123b	-0.016610255
35	0xbc186b67	-0.00930295
36	0x3e066b8c	0.13126963
37	0xbdb9f942	-0.09080745
38	0x3b69e522	0.0035689552
39	0x3d473a7b	0.048639756
40	0x3b3bb2da	0.002864054
41	0x3d86ad16	0.06575982
42	0x3d99ebf4	0.075157076
43	0x3db49eb2	0.08819331
44	0x3d2916d7	0.041281547
45	0x3bef9ceb	0.0073124073
46	0x3e375db4	0.17906839
47	0xbdfd2f92	-0.12362589
48	0xbd3d8dad	-0.04627769
49	0x3d180673	0.037115525
50	0xbae74857	-0.001764546
51	0xbe099bc1	-0.13438322
52	0x3e16b7b7	0.14718519
53	0xbdacbe81	-0.08434773
54	0xbc93c896	-0.018039983
55	0x3cf69111	0.03009847
56	0x3c161464	0.009160135
57	0x3d9b8907	0.07594495
58	0xbaf842ac	-0.0018940768
59	0x3d3b875e	0.045783393
60	0xbd243dd9	-0.040098045
61	0x3d5729eb	0.05253021
62	0xbcadd8bd	-0.021221513
63	0xbdc291e7	-0.09500485

model1.12.weight f4 [10, 64]
0	0xbe36ccd4	-0.17851573
1	0x3e62aa3d	0.22135253
2	0xbb4c9269	-0.0031215197
3	0xbd4d7c62	-0.05016745
4	0xbd3fb74d	-0.04680567
5	0xbc0191fa	-0.007908339
6	0x3eb2f9b1	0.34956124
7	0xbdb0934c	-0.08621845
8	0xbf0b9091	-0.54517466
9	0x3ea51d6e	0.32249016
10	0x3e4358df	0.1907687
11	0xba9cce19	-0.0011963277
12	0x3e3c9d31	0.18419339
13	0xbe67bc7e	-0.22630498
14	0x3ca5954f	0.020212797
15	0xbcf7fc2f	-0.030271618
16	0x3d610008	0.05493167
17	0x3dc4a2af	0.09601342
18	0xbdc2e093	-0.095154904
19	0xbeab8264	-0.33497918
20	0x3d913470	0.0709008
21	0x3e46753a	0.19380656
22	0x3b5113ba	0.0031902627
23	0x3e9aaa3e	0.3020801
24	0x3ed3b63f	0.4134998
25	0xbe5a5591	-0.21321703
26	0x3e8977e1	0.26849273
27	0xbd0b6983	-0.03403617
28	0xbeb46033	-0.35229644
29	0x3e897fc6	0.26855296
30	0xbe9894a9	-0.2980092
31	0xbdf8afaa	-0.1214288
32	0x3e3a6967	0.1820427
33	0x3e92045a	0.28518945
34	0xbd845701	-0.06461907
35	0x3dab779c	0.08372423
36	0xbe855923	-0.26044568
37	0xbe35a431	-0.17738415
38	0x3e900225	0.28126636
39	0xbec7602b	-0.38940558
40	0x3f08f896	0.5350431
41	0xbe530fd1	-0.20611502
42	0xbd8d93b3	-0.06912937
43	0x3d9b7d40	0.07592249
44	0xbd1a4afc	-0.037669167
45	0x3e58a242	0.21155646
46	0xbd83aa53	-0.06428971
47	0x3e800370	0.25002623
48	0x3e2b36c6	0.16720113
49	0xbe1fe4a7	-0.15614568
50	0xbcf9c75e	-0.030490573
51	0xbd90de98	-0.070737064
52	0x3dcaeb68	0.099081814
53	0x3e946078	0.2897985
54	0x3db4edef	0.08834445
55	0xbe34e41b	-0.1766514
56	0x3e392744	0.18081385
57	0x3dcb7990	0.099352956
58	0xbe03a1d0	-0.12854695
59	0xbf0bc8d0	-0.5460329
60	0x3d8a9016	0.067657635
61	0x3e3ab979	0.18234815
62	0x3dc6544f	0.09684049
63	0x3e81044f	0.251986
64	0xbea8ef5b	-0.32995114
65	0xbd0bd1e5	-0.034135718
66	0xbed4199a	-0.41425782
67	0x3e576692	0.21035221
68	0xbe035e91	-0.12829043
69	0x3ebb30e6	0.36560744
70	0xbe1e2837	-0.15445028
71	0xbd5dc2e2	-0.054140933
72	0x3e16252a	0.14662614
73	0x3dfb8908	0.12281996
74	0x3e462575	0.19350226
75	0x3dbc5d86	0.09197526
76	0xbec898d3	-0.39179096
77	0x3e9fa4fc	0.3118056
78	0x3eb971f9	0.36219767
79	0xbe8051f0	-0.25062513
80	0x3d342466	0.043980025
81	0x3e3cc009	0.1843263
82	0x3e9d6488	0.30740762
83	0x3b6a3653	0.0035737946
84	0xbdd360d9	-0.103212066
85	0xbe6dac41	-0.23210241
86	0xbe91975a	-0.28435785
87	0x3e319f51	0.1734593
88	0x3e7c6ae1	0.24650146
89	0x3eac2310	0.336205
90	0xbcb99bc4	-0.022657283
91	0xbc6037ef	-0.013685211
92	0xbe708a4d	-0.23490258
93	0xbcad72da	-0.02117293
94	0x3ecd5676	0.40105027
95	0xbec95e8c	-0.39329946
96	0xbe4f9ff8	-0.20275867
97	0xbd1968aa	-0.03745333
98	0x3df02bed	0.11727128
99	0x3ebb784d	0.3661522
100	0xbe00c51c	-0.12575191
101	0x3ec0046c	0.37503374
102	0xbe417c9d	-0.18895192
103	0xbe9e9e34	-0.30980074
104	0xbe35b8d0	-0.17746282
105	0xbefcf2a4	-0.4940387
106	0x3da802a8	0.08203632
107	0xbec9eb3c	-0.39437282
108	0xbea91cf8	-0.33029914
109	0xbe37eddc	-0.1796183
110	0x3dc70b85	0.09718994
111	0x3e8af0f1	0.2713695
112	0xbe14040d	-0.1445467
113	0x3e8311f9	0.2559965
114	0xbdaa86e8	-0.083265126
115	0x3e033c5b	0.12815993
116	0xbecfada3	-0.40562162
117	0x3eb21403	0.34780893
118	0x3e65bbdc	0.22434944
119	0xbcf5ff03	-0.030028826
120	0xbe2ca455	-0.16859563
121	0x3d251644	0.040304437
122	0xbdb55d0e	-0.088556394
123	0x3e1ecf42	0.1550875
124	0x3ea8186b	0.3283113
125	0xbec7688e	-0.38946956
126	0x3e99a590	0.30009127
127	0xbefe838d	-0.4970974
128	0xbd5f5473	-0.054523896
129	0xbe386b38	-0.1800965
130	0x3f067bb8	0.5253253
131	0xbe8b57e8	-0.27215505
132	0xbdf8434c	-0.12122211
133	0x3def75f3	0.11692419
134	0x3e4b8eb0	0.1987865
135	0x3e179f18	0.14806783
136	0x3e14c317	0.14527546
137	0xbeb2f304	-0.3495103
138	0xbdbc79b1	-0.09202898
139	0x3ebb2fa4	0.36559784
140	0xbcecc7b6	-0.028903823
141	0xbea02e51	-0.31285337
142	0x3e64f3d2	0.22358635
143	0xbe778c2e	-0.24174568
144	0x3e34a9f4	0.17642957
145	0x3e81128b	0.2520946
146	0xbd95d68e	-0.07316314
147	0xbd7a5fbd	-0.06112646
148	0xbe3131e3	-0.17304187
149	0x3d94ed25	0.07271794
150	0x3e9801c8	0.2968886
151	0x3e85134c	0.25991285
152	0x3d951801	0.07279969
153	0xbdfd7af4	-0.12376967
154	0x3eb7fe06	0.35935992
155	0xbcf042c6	-0.029328715
156	0x3eb9467c	0.36186588
157	0xbba562ae	-0.005047164
158	0x3e30b260	0.17255545
159	0x3e36f15a	0.17865506
160	0x3db8de67	0.09026795
161	0xbb4c778c	-0.0031199185
162	0x3e84de42	0.2595082
163	0xbe31e95e	-0.17374179
164	0xbe550a20	-0.20804644
165	0x3d7f4800	0.062324524
166	0x3ec5e776	0.38653153
167	0x3dcdeeb7	0.10055297
168	0xbd072642	-0.03299547
169	0x3ecdedf7	0.40220615
170	0x3e60a71f	0.21938752
171	0x3e17303a	0.1476449
172	0xbe808d6c	-0.25107896
173	0x3da4c051	0.08044494
174	0xbd6c2f29	-0.057662163
175	0x3d17ac0d	0.037029315
176	0x3dd3613d	0.10321281
177	0xbe809529	-0.251138
178	0xbeab3a48	-0.33442903
179	0xbe92ede3	-0.28697118
180	0x3e93912a	0.2882169
181	0xbe6d0339	-0.2314576
182	0xbdabc758	-0.08387631
183	0xbe3af71d	-0.18258329
184	0xbe890608	-0.26762414
185	0xbed8bcbf	-0.42331502
186	0xbe9f3dfd	-0.3110198
187	0xbe2b8756	-0.16750845
188	0x3ee598c0	0.44843102
189	0xbe046948	-0.12930787
190	0xbeb94676	-0.3618657
191	0x3e2dc6cd	0.16970368
192	0x3ddcd4fe	0.107828125
193	0xbe2501e0	-0.16113997
194	0x3d554092	0.052063532
195	0x3e78b3d9	0.24287356
196	0xbe4f51fd	-0.2024612
197	0xbe1be2f7	-0.15223299
198	0xbe551c0a	-0.20811477
199	0xbdfb66ab	-0.12275442
200	0x3e897670	0.26848173
201	0xbe50d76e	-0.2039468
202	0xbce89d3d	-0.02839529
203	0x3e127113	0.14300947
204	0xbea42d06	-0.320656
205	0x3dca5623	0.098797105
206	0xbe77ea98	-0.24210584
207	0x3e18de37	0.14928518
208	0x3eab9fab	0.33520254
209	0x3e71f921	0.23630191
210	0x3e248270	0.16065383
211	0xbd3ce4a2	-0.04611648
212	0x3ea15ebe	0.31517595
213	0xbebd3c9f	-0.36960313
214	0xbd19759b	-0.037465673
215	0xbdf97805	-0.12181095
216	0xbc702b10	-0.014658704
217	0x3e87bd97	0.26511833
218	0xbe5132b3	-0.20429496
219	0x3d17f0b4	0.037094787
220	0xbe31c48b	-0.17360131
221	0x3ea0b27c	0.31386173
222	0xbe41506b	-0.18878333
223	0x3e79f357	0.24409233
224	0xbec9889a	-0.3936203
225	0xbde7e73f	-0.113234036
226	0xbe17fc8b	-0.14842431
227	0x3e0845ae	0.1330783
228	0xbe5e50f2	-0.21710566
229	0xbeb95a9b	-0.3620194
230	0xbe111da9	-0.1417147
231	0x3d33439d	0.043765653
232	0xbda49870	-0.08036888
233	0x3e35ee02	0.17766574
234	0xbea6cf51	-0.32580045
235	0x3e99af43	0.30016527
236	0x3e81687c	0.25275028
237	0x3e849b97	0.25899956
238	0xbe352e97	-0.17693554
239	0xbe2c63e0	-0.16834974
240	0xbe5c330d	-0.2150385
241	0x3e8c803c	0.27441585
242	0x3ea5b4bc	0.32364452
243	0xbc3adb50	-0.011404827
244	0x3dc31176	0.09524815
245	0x3e90feef	0.283195
246	0xbea68b53	-0.3252817
247	0x3e41a4f6	0.18910584
248	0x3e6ec427	0.23317014
249	0xbd4cb928	-0.049981266
250	0xbe646f72	-0.22308138
251	0xbd4e5474	-0.05037351
252	0xbe8e98a0	-0.2785082
253	0xbe0efc9b	-0.13963549
254	0x3d376683	0.044775497
255	0x3d687373	0.056750726

model1.12.bias f4 [10]
0	0xbe8df3cd	-0.27725068
1	0xbe38ed52	-0.1805928
2	0x3d730b8e	0.05933719
3	0x3e2134e1	0.15742828
4	0x3eb69276	0.35658616
5	0xbe11d262	-0.14240411
6	0x3e33eeb1	0.17571522
7	0xbe1eb5a1	-0.15498973
8	0x3e0cf957	0.1376699
9	0xbe303067	-0.17205964
